{"architecture":{"class_name":"Functional","config":{"name":"sequential","layers":[{"class_name":"InputLayer","config":{"batch_input_shape":[null,36,112,1],"dtype":"float32","sparse":false,"ragged":false,"name":"input_1"},"name":"input_1","inbound_nodes":[]},{"class_name":"Conv2D","config":{"name":"conv2d","trainable":true,"batch_input_shape":[null,36,112,1],"dtype":"float32","filters":3,"kernel_size":[4,3],"strides":[1,1],"padding":"same","data_format":"channels_last","dilation_rate":[1,1],"groups":1,"activation":"relu","use_bias":true,"kernel_initializer":{"class_name":"GlorotUniform","config":{"seed":null}},"bias_initializer":{"class_name":"Zeros","config":{}},"kernel_regularizer":null,"bias_regularizer":null,"activity_regularizer":null,"kernel_constraint":null,"bias_constraint":null},"name":"conv2d","inbound_nodes":[[["input_1",0,0,{}]]]},{"class_name":"Conv2D","config":{"name":"conv2d_1","trainable":true,"dtype":"float32","filters":3,"kernel_size":[4,3],"strides":[1,1],"padding":"same","data_format":"channels_last","dilation_rate":[1,1],"groups":1,"activation":"relu","use_bias":true,"kernel_initializer":{"class_name":"GlorotUniform","config":{"seed":null}},"bias_initializer":{"class_name":"Zeros","config":{}},"kernel_regularizer":null,"bias_regularizer":null,"activity_regularizer":null,"kernel_constraint":null,"bias_constraint":null},"name":"conv2d_1","inbound_nodes":[[["conv2d",0,0,{}]]]},{"class_name":"MaxPooling2D","config":{"name":"max_pooling2d","trainable":true,"dtype":"float32","pool_size":[2,2],"padding":"valid","strides":[2,2],"data_format":"channels_last"},"name":"max_pooling2d","inbound_nodes":[[["conv2d_1",0,0,{}]]]},{"class_name":"Conv2D","config":{"name":"conv2d_2","trainable":true,"dtype":"float32","filters":3,"kernel_size":[3,3],"strides":[1,1],"padding":"same","data_format":"channels_last","dilation_rate":[1,1],"groups":1,"activation":"relu","use_bias":true,"kernel_initializer":{"class_name":"GlorotUniform","config":{"seed":null}},"bias_initializer":{"class_name":"Zeros","config":{}},"kernel_regularizer":null,"bias_regularizer":null,"activity_regularizer":null,"kernel_constraint":null,"bias_constraint":null},"name":"conv2d_2","inbound_nodes":[[["max_pooling2d",0,0,{}]]]},{"class_name":"Conv2D","config":{"name":"conv2d_3","trainable":true,"dtype":"float32","filters":3,"kernel_size":[3,3],"strides":[1,1],"padding":"same","data_format":"channels_last","dilation_rate":[1,1],"groups":1,"activation":"relu","use_bias":true,"kernel_initializer":{"class_name":"GlorotUniform","config":{"seed":null}},"bias_initializer":{"class_name":"Zeros","config":{}},"kernel_regularizer":null,"bias_regularizer":null,"activity_regularizer":null,"kernel_constraint":null,"bias_constraint":null},"name":"conv2d_3","inbound_nodes":[[["conv2d_2",0,0,{}]]]},{"class_name":"MaxPooling2D","config":{"name":"max_pooling2d_1","trainable":true,"dtype":"float32","pool_size":[3,2],"padding":"valid","strides":[3,2],"data_format":"channels_last"},"name":"max_pooling2d_1","inbound_nodes":[[["conv2d_3",0,0,{}]]]},{"class_name":"Conv2D","config":{"name":"conv2d_4","trainable":true,"dtype":"float32","filters":3,"kernel_size":[3,3],"strides":[1,1],"padding":"same","data_format":"channels_last","dilation_rate":[1,1],"groups":1,"activation":"relu","use_bias":true,"kernel_initializer":{"class_name":"GlorotUniform","config":{"seed":null}},"bias_initializer":{"class_name":"Zeros","config":{}},"kernel_regularizer":null,"bias_regularizer":null,"activity_regularizer":null,"kernel_constraint":null,"bias_constraint":null},"name":"conv2d_4","inbound_nodes":[[["max_pooling2d_1",0,0,{}]]]},{"class_name":"Conv2D","config":{"name":"conv2d_5","trainable":true,"dtype":"float32","filters":3,"kernel_size":[3,3],"strides":[1,1],"padding":"same","data_format":"channels_last","dilation_rate":[1,1],"groups":1,"activation":"relu","use_bias":true,"kernel_initializer":{"class_name":"GlorotUniform","config":{"seed":null}},"bias_initializer":{"class_name":"Zeros","config":{}},"kernel_regularizer":null,"bias_regularizer":null,"activity_regularizer":null,"kernel_constraint":null,"bias_constraint":null},"name":"conv2d_5","inbound_nodes":[[["conv2d_4",0,0,{}]]]},{"class_name":"UpSampling2D","config":{"name":"up_sampling2d","trainable":true,"dtype":"float32","size":[3,2],"data_format":"channels_last","interpolation":"nearest"},"name":"up_sampling2d","inbound_nodes":[[["conv2d_5",0,0,{}]]]},{"class_name":"Conv2D","config":{"name":"conv2d_6","trainable":true,"dtype":"float32","filters":3,"kernel_size":[3,3],"strides":[1,1],"padding":"same","data_format":"channels_last","dilation_rate":[1,1],"groups":1,"activation":"relu","use_bias":true,"kernel_initializer":{"class_name":"GlorotUniform","config":{"seed":null}},"bias_initializer":{"class_name":"Zeros","config":{}},"kernel_regularizer":null,"bias_regularizer":null,"activity_regularizer":null,"kernel_constraint":null,"bias_constraint":null},"name":"conv2d_6","inbound_nodes":[[["up_sampling2d",0,0,{}]]]},{"class_name":"Conv2D","config":{"name":"conv2d_7","trainable":true,"dtype":"float32","filters":3,"kernel_size":[3,3],"strides":[1,1],"padding":"same","data_format":"channels_last","dilation_rate":[1,1],"groups":1,"activation":"relu","use_bias":true,"kernel_initializer":{"class_name":"GlorotUniform","config":{"seed":null}},"bias_initializer":{"class_name":"Zeros","config":{}},"kernel_regularizer":null,"bias_regularizer":null,"activity_regularizer":null,"kernel_constraint":null,"bias_constraint":null},"name":"conv2d_7","inbound_nodes":[[["conv2d_6",0,0,{}]]]},{"class_name":"UpSampling2D","config":{"name":"up_sampling2d_1","trainable":true,"dtype":"float32","size":[2,2],"data_format":"channels_last","interpolation":"nearest"},"name":"up_sampling2d_1","inbound_nodes":[[["conv2d_7",0,0,{}]]]},{"class_name":"Conv2D","config":{"name":"conv2d_8","trainable":true,"dtype":"float32","filters":3,"kernel_size":[4,3],"strides":[1,1],"padding":"same","data_format":"channels_last","dilation_rate":[1,1],"groups":1,"activation":"relu","use_bias":true,"kernel_initializer":{"class_name":"GlorotUniform","config":{"seed":null}},"bias_initializer":{"class_name":"Zeros","config":{}},"kernel_regularizer":null,"bias_regularizer":null,"activity_regularizer":null,"kernel_constraint":null,"bias_constraint":null},"name":"conv2d_8","inbound_nodes":[[["up_sampling2d_1",0,0,{}]]]},{"class_name":"Conv2D","config":{"name":"conv2d_9","trainable":true,"dtype":"float32","filters":3,"kernel_size":[4,3],"strides":[1,1],"padding":"same","data_format":"channels_last","dilation_rate":[1,1],"groups":1,"activation":"relu","use_bias":true,"kernel_initializer":{"class_name":"GlorotUniform","config":{"seed":null}},"bias_initializer":{"class_name":"Zeros","config":{}},"kernel_regularizer":null,"bias_regularizer":null,"activity_regularizer":null,"kernel_constraint":null,"bias_constraint":null},"name":"conv2d_9","inbound_nodes":[[["conv2d_8",0,0,{}]]]},{"class_name":"Conv2D","config":{"name":"conv2d_10","trainable":true,"dtype":"float32","filters":1,"kernel_size":[4,3],"strides":[1,1],"padding":"same","data_format":"channels_last","dilation_rate":[1,1],"groups":1,"activation":"sigmoid","use_bias":true,"kernel_initializer":{"class_name":"GlorotUniform","config":{"seed":null}},"bias_initializer":{"class_name":"Zeros","config":{}},"kernel_regularizer":null,"bias_regularizer":null,"activity_regularizer":null,"kernel_constraint":null,"bias_constraint":null},"name":"conv2d_10","inbound_nodes":[[["conv2d_9",0,0,{}]]]}],"input_layers":[["input_1",0,0]],"output_layers":[["conv2d_10",0,0]]},"keras_version":"2.10.0","backend":"tensorflow"},"image_data_format":"channels_last","input_shapes":[[36,112,1]],"output_shapes":[[36,112,1]],"tests":[{"inputs":[{"shape":[36,112,1],"values":["…","…","…","…","…","…","…","…","…","…","…","…","…","…","…","…","…","…","…","…","…"]}],"outputs":[{"shape":[36,112,1],"values":["…","…","…","…","…","…","…","…","…","…","…","…","…","…","…","…","…","…","…","…","…"]}]}],"trainable_params":{"conv2d":{"weights":["UNI9vKWBGD7YR8e9GUYaPk9UJj3zAie9dCJIPS9/6j7fXdC+XJ0pPk/rDT0mfBe9hLBwvoT+6j4W5E++P+/5vfPiyD3Y/a49m4c7PcF2HD2N8Z077JaGu49CDz7cPRC95m/WPQsJgb3SiLG9N16WvCqmaT0nPhg9ffJ5Pm6flz49fBk99+FPPiBUNT5A9+M9"],"bias":["0XoavokpT75WtPi9"]},"conv2d_1":{"weights":["…"],"bias":["TQROvitebb3zKeY9"]},"conv2d_2":{"weights":["…"],"bias":["1v8QPV31jz52vYA+"]},"conv2d_3":{"weights":["…"],"bias":["zUVvvf8pkD3Drpw+"]},"conv2d_4":{"weights":["…"],"bias":["zkj8Pasw1b2uWwQ+"]},"conv2d_5":{"weights":["…"],"bias":["1acRP2A4IT7Ju0q+"]},"conv2d_6":{"weights":["…"],"bias":["qBsKPw1xkT0f3mM+"]},"conv2d_7":{"weights":["…"],"bias":["3jhgukIAsj7LqNw+"]},"conv2d_8":{"weights":["…"],"bias":["9iFMPmBC/b4ZcqG9"]},"conv2d_9":{"weights":["…"],"bias":["addfvhhiB78R6Bu9"]},"conv2d_10":{"weights":["4s+fProStb71hsE9IpkBPgsjGr/Bp9q9A+edPQC+rT4coJ+9nEXfvVqpNL/5WQS/ZnLTPZXtKL4ALVQ/l226vtqM/j1wCEy/0kSCPhLTlr22JTU+KhHMvndGl75QgyY/pVQTv6peZD81pxO9bcxMv+Q6+T4WnO2+eab2PQnMVL4cyxk/wZ+Ev8ow4z5RUaO+"],"bias":["B/Q5Pw=="]}},"hash":"3becce39d4968cef197ac8d58a5b7b988ede89f72806ad2e1dc63299ceb1ec28"}