{"architecture":{"class_name":"Functional","config":{"name":"sequential","layers":[{"class_name":"InputLayer","config":{"batch_input_shape":[null,36,112,1],"dtype":"float32","sparse":false,"ragged":false,"name":"input_1"},"name":"input_1","inbound_nodes":[]},{"class_name":"Conv2D","config":{"name":"conv2d","trainable":true,"batch_input_shape":[null,36,112,1],"dtype":"float32","filters":6,"kernel_size":[4,6],"strides":[1,1],"padding":"same","data_format":"channels_last","dilation_rate":[1,1],"groups":1,"activation":"relu","use_bias":true,"kernel_initializer":{"class_name":"GlorotUniform","config":{"seed":null}},"bias_initializer":{"class_name":"Zeros","config":{}},"kernel_regularizer":null,"bias_regularizer":null,"activity_regularizer":null,"kernel_constraint":null,"bias_constraint":null},"name":"conv2d","inbound_nodes":[[["input_1",0,0,{}]]]},{"class_name":"MaxPooling2D","config":{"name":"max_pooling2d","trainable":true,"dtype":"float32","pool_size":[2,2],"padding":"valid","strides":[2,2],"data_format":"channels_last"},"name":"max_pooling2d","inbound_nodes":[[["conv2d",0,0,{}]]]},{"class_name":"Conv2D","config":{"name":"conv2d_1","trainable":true,"dtype":"float32","filters":6,"kernel_size":[4,6],"strides":[1,1],"padding":"same","data_format":"channels_last","dilation_rate":[1,1],"groups":1,"activation":"relu","use_bias":true,"kernel_initializer":{"class_name":"GlorotUniform","config":{"seed":null}},"bias_initializer":{"class_name":"Zeros","config":{}},"kernel_regularizer":null,"bias_regularizer":null,"activity_regularizer":null,"kernel_constraint":null,"bias_constraint":null},"name":"conv2d_1","inbound_nodes":[[["max_pooling2d",0,0,{}]]]},{"class_name":"MaxPooling2D","config":{"name":"max_pooling2d_1","trainable":true,"dtype":"float32","pool_size":[2,2],"padding":"valid","strides":[2,2],"data_format":"channels_last"},"name":"max_pooling2d_1","inbound_nodes":[[["conv2d_1",0,0,{}]]]},{"class_name":"Conv2D","config":{"name":"conv2d_2","trainable":true,"dtype":"float32","filters":6,"kernel_size":[4,6],"strides":[1,1],"padding":"same","data_format":"channels_last","dilation_rate":[1,1],"groups":1,"activation":"relu","use_bias":true,"kernel_initializer":{"class_name":"GlorotUniform","config":{"seed":null}},"bias_initializer":{"class_name":"Zeros","config":{}},"kernel_regularizer":null,"bias_regularizer":null,"activity_regularizer":null,"kernel_constraint":null,"bias_constraint":null},"name":"conv2d_2","inbound_nodes":[[["max_pooling2d_1",0,0,{}]]]},{"class_name":"UpSampling2D","config":{"name":"up_sampling2d","trainable":true,"dtype":"float32","size":[2,2],"data_format":"channels_last","interpolation":"nearest"},"name":"up_sampling2d","inbound_nodes":[[["conv2d_2",0,0,{}]]]},{"class_name":"Conv2D","config":{"name":"conv2d_3","trainable":true,"dtype":"float32","filters":6,"kernel_size":[4,6],"strides":[1,1],"padding":"same","data_format":"channels_last","dilation_rate":[1,1],"groups":1,"activation":"relu","use_bias":true,"kernel_initializer":{"class_name":"GlorotUniform","config":{"seed":null}},"bias_initializer":{"class_name":"Zeros","config":{}},"kernel_regularizer":null,"bias_regularizer":null,"activity_regularizer":null,"kernel_constraint":null,"bias_constraint":null},"name":"conv2d_3","inbound_nodes":[[["up_sampling2d",0,0,{}]]]},{"class_name":"UpSampling2D","config":{"name":"up_sampling2d_1","trainable":true,"dtype":"float32","size":[2,2],"data_format":"channels_last","interpolation":"nearest"},"name":"up_sampling2d_1","inbound_nodes":[[["conv2d_3",0,0,{}]]]},{"class_name":"Conv2D","config":{"name":"conv2d_4","trainable":true,"dtype":"float32","filters":1,"kernel_size":[4,6],"strides":[1,1],"padding":"same","data_format":"channels_last","dilation_rate":[1,1],"groups":1,"activation":"sigmoid","use_bias":true,"kernel_initializer":{"class_name":"GlorotUniform","config":{"seed":null}},"bias_initializer":{"class_name":"Zeros","config":{}},"kernel_regularizer":null,"bias_regularizer":null,"activity_regularizer":null,"kernel_constraint":null,"bias_constraint":null},"name":"conv2d_4","inbound_nodes":[[["up_sampling2d_1",0,0,{}]]]}],"input_layers":[["input_1",0,0]],"output_layers":[["conv2d_4",0,0]]},"keras_version":"2.10.0","backend":"tensorflow"},"image_data_format":"channels_last","input_shapes":[[36,112,1]],"output_shapes":[[36,112,1]],"tests":[{"inputs":[{"shape":[36,112,1],"values":["…","…","…","…","…","…","…","…","…","…","…","…","…","…","…","…","…","…","…","…","…"]}],"outputs":[{"shape":[36,112,1],"values":["…","…","…","…","…","…","…","…","…","…","…","…","…","…","…","…","…","…","…","…","…"]}]}],"trainable_params":{"conv2d":{"weights":["…"],"bias":["wrZhPKeQozy0w70+CIupvmlvET5XmBa+"]},"conv2d_1":{"weights":["…","…","…","…","…"],"bias":["PmWBvTURIz4dleg+vLxMPlvC1D7ui1Q+"]},"conv2d_2":{"weights":["…","…","…","…","…"],"bias":["rrUCPkNxJT+IV54+yKMMvVHxhj4Hx4I+"]},"conv2d_3":{"weights":["…","…","…","…","…"],"bias":["gokrPPkjAD8tI5Y+ImpQPhlqBz9L5TO+"]},"conv2d_4":{"weights":["…"],"bias":["aHvkvg=="]}},"hash":"c44db08e5bd71b96dfc8b2d122093a232ff5b0d010a310224339ca3e3c6945d7"}