{"architecture":{"class_name":"Functional","config":{"name":"sequential","layers":[{"class_name":"InputLayer","config":{"batch_input_shape":[null,36,112,1],"dtype":"float32","sparse":false,"ragged":false,"name":"input_1"},"name":"input_1","inbound_nodes":[]},{"class_name":"Conv2D","config":{"name":"conv2d","trainable":true,"batch_input_shape":[null,36,112,1],"dtype":"float32","filters":6,"kernel_size":[4,3],"strides":[1,1],"padding":"same","data_format":"channels_last","dilation_rate":[1,1],"groups":1,"activation":"relu","use_bias":true,"kernel_initializer":{"class_name":"GlorotUniform","config":{"seed":null}},"bias_initializer":{"class_name":"Zeros","config":{}},"kernel_regularizer":null,"bias_regularizer":null,"activity_regularizer":null,"kernel_constraint":null,"bias_constraint":null},"name":"conv2d","inbound_nodes":[[["input_1",0,0,{}]]]},{"class_name":"Conv2D","config":{"name":"conv2d_1","trainable":true,"dtype":"float32","filters":6,"kernel_size":[4,3],"strides":[1,1],"padding":"same","data_format":"channels_last","dilation_rate":[1,1],"groups":1,"activation":"relu","use_bias":true,"kernel_initializer":{"class_name":"GlorotUniform","config":{"seed":null}},"bias_initializer":{"class_name":"Zeros","config":{}},"kernel_regularizer":null,"bias_regularizer":null,"activity_regularizer":null,"kernel_constraint":null,"bias_constraint":null},"name":"conv2d_1","inbound_nodes":[[["conv2d",0,0,{}]]]},{"class_name":"MaxPooling2D","config":{"name":"max_pooling2d","trainable":true,"dtype":"float32","pool_size":[2,2],"padding":"valid","strides":[2,2],"data_format":"channels_last"},"name":"max_pooling2d","inbound_nodes":[[["conv2d_1",0,0,{}]]]},{"class_name":"Conv2D","config":{"name":"conv2d_2","trainable":true,"dtype":"float32","filters":6,"kernel_size":[3,3],"strides":[1,1],"padding":"same","data_format":"channels_last","dilation_rate":[1,1],"groups":1,"activation":"relu","use_bias":true,"kernel_initializer":{"class_name":"GlorotUniform","config":{"seed":null}},"bias_initializer":{"class_name":"Zeros","config":{}},"kernel_regularizer":null,"bias_regularizer":null,"activity_regularizer":null,"kernel_constraint":null,"bias_constraint":null},"name":"conv2d_2","inbound_nodes":[[["max_pooling2d",0,0,{}]]]},{"class_name":"Conv2D","config":{"name":"conv2d_3","trainable":true,"dtype":"float32","filters":6,"kernel_size":[3,3],"strides":[1,1],"padding":"same","data_format":"channels_last","dilation_rate":[1,1],"groups":1,"activation":"relu","use_bias":true,"kernel_initializer":{"class_name":"GlorotUniform","config":{"seed":null}},"bias_initializer":{"class_name":"Zeros","config":{}},"kernel_regularizer":null,"bias_regularizer":null,"activity_regularizer":null,"kernel_constraint":null,"bias_constraint":null},"name":"conv2d_3","inbound_nodes":[[["conv2d_2",0,0,{}]]]},{"class_name":"MaxPooling2D","config":{"name":"max_pooling2d_1","trainable":true,"dtype":"float32","pool_size":[3,2],"padding":"valid","strides":[3,2],"data_format":"channels_last"},"name":"max_pooling2d_1","inbound_nodes":[[["conv2d_3",0,0,{}]]]},{"class_name":"Conv2D","config":{"name":"conv2d_4","trainable":true,"dtype":"float32","filters":6,"kernel_size":[3,3],"strides":[1,1],"padding":"same","data_format":"channels_last","dilation_rate":[1,1],"groups":1,"activation":"relu","use_bias":true,"kernel_initializer":{"class_name":"GlorotUniform","config":{"seed":null}},"bias_initializer":{"class_name":"Zeros","config":{}},"kernel_regularizer":null,"bias_regularizer":null,"activity_regularizer":null,"kernel_constraint":null,"bias_constraint":null},"name":"conv2d_4","inbound_nodes":[[["max_pooling2d_1",0,0,{}]]]},{"class_name":"Conv2D","config":{"name":"conv2d_5","trainable":true,"dtype":"float32","filters":6,"kernel_size":[3,3],"strides":[1,1],"padding":"same","data_format":"channels_last","dilation_rate":[1,1],"groups":1,"activation":"relu","use_bias":true,"kernel_initializer":{"class_name":"GlorotUniform","config":{"seed":null}},"bias_initializer":{"class_name":"Zeros","config":{}},"kernel_regularizer":null,"bias_regularizer":null,"activity_regularizer":null,"kernel_constraint":null,"bias_constraint":null},"name":"conv2d_5","inbound_nodes":[[["conv2d_4",0,0,{}]]]},{"class_name":"UpSampling2D","config":{"name":"up_sampling2d","trainable":true,"dtype":"float32","size":[3,2],"data_format":"channels_last","interpolation":"nearest"},"name":"up_sampling2d","inbound_nodes":[[["conv2d_5",0,0,{}]]]},{"class_name":"Conv2D","config":{"name":"conv2d_6","trainable":true,"dtype":"float32","filters":6,"kernel_size":[3,3],"strides":[1,1],"padding":"same","data_format":"channels_last","dilation_rate":[1,1],"groups":1,"activation":"relu","use_bias":true,"kernel_initializer":{"class_name":"GlorotUniform","config":{"seed":null}},"bias_initializer":{"class_name":"Zeros","config":{}},"kernel_regularizer":null,"bias_regularizer":null,"activity_regularizer":null,"kernel_constraint":null,"bias_constraint":null},"name":"conv2d_6","inbound_nodes":[[["up_sampling2d",0,0,{}]]]},{"class_name":"Conv2D","config":{"name":"conv2d_7","trainable":true,"dtype":"float32","filters":6,"kernel_size":[3,3],"strides":[1,1],"padding":"same","data_format":"channels_last","dilation_rate":[1,1],"groups":1,"activation":"relu","use_bias":true,"kernel_initializer":{"class_name":"GlorotUniform","config":{"seed":null}},"bias_initializer":{"class_name":"Zeros","config":{}},"kernel_regularizer":null,"bias_regularizer":null,"activity_regularizer":null,"kernel_constraint":null,"bias_constraint":null},"name":"conv2d_7","inbound_nodes":[[["conv2d_6",0,0,{}]]]},{"class_name":"UpSampling2D","config":{"name":"up_sampling2d_1","trainable":true,"dtype":"float32","size":[2,2],"data_format":"channels_last","interpolation":"nearest"},"name":"up_sampling2d_1","inbound_nodes":[[["conv2d_7",0,0,{}]]]},{"class_name":"Conv2D","config":{"name":"conv2d_8","trainable":true,"dtype":"float32","filters":6,"kernel_size":[4,3],"strides":[1,1],"padding":"same","data_format":"channels_last","dilation_rate":[1,1],"groups":1,"activation":"relu","use_bias":true,"kernel_initializer":{"class_name":"GlorotUniform","config":{"seed":null}},"bias_initializer":{"class_name":"Zeros","config":{}},"kernel_regularizer":null,"bias_regularizer":null,"activity_regularizer":null,"kernel_constraint":null,"bias_constraint":null},"name":"conv2d_8","inbound_nodes":[[["up_sampling2d_1",0,0,{}]]]},{"class_name":"Conv2D","config":{"name":"conv2d_9","trainable":true,"dtype":"float32","filters":6,"kernel_size":[4,3],"strides":[1,1],"padding":"same","data_format":"channels_last","dilation_rate":[1,1],"groups":1,"activation":"relu","use_bias":true,"kernel_initializer":{"class_name":"GlorotUniform","config":{"seed":null}},"bias_initializer":{"class_name":"Zeros","config":{}},"kernel_regularizer":null,"bias_regularizer":null,"activity_regularizer":null,"kernel_constraint":null,"bias_constraint":null},"name":"conv2d_9","inbound_nodes":[[["conv2d_8",0,0,{}]]]},{"class_name":"Conv2D","config":{"name":"conv2d_10","trainable":true,"dtype":"float32","filters":1,"kernel_size":[4,3],"strides":[1,1],"padding":"same","data_format":"channels_last","dilation_rate":[1,1],"groups":1,"activation":"sigmoid","use_bias":true,"kernel_initializer":{"class_name":"GlorotUniform","config":{"seed":null}},"bias_initializer":{"class_name":"Zeros","config":{}},"kernel_regularizer":null,"bias_regularizer":null,"activity_regularizer":null,"kernel_constraint":null,"bias_constraint":null},"name":"conv2d_10","inbound_nodes":[[["conv2d_9",0,0,{}]]]}],"input_layers":[["input_1",0,0]],"output_layers":[["conv2d_10",0,0]]},"keras_version":"2.10.0","backend":"tensorflow"},"image_data_format":"channels_last","input_shapes":[[36,112,1]],"output_shapes":[[36,112,1]],"tests":[{"inputs":[{"shape":[36,112,1],"values":["…","…","…","…","…","…","…","…","…","…","…","…","…","…","…","…","…","…","…","…","…"]}],"outputs":[{"shape":[36,112,1],"values":["…","…","…","…","…","…","…","…","…","…","…","…","…","…","…","…","…","…","…","…","…"]}]}],"trainable_params":{"conv2d":{"weights":["…"],"bias":["EhUqPRHjGL5TMN+9zkpcvQjJOr5cSB8+"]},"conv2d_1":{"weights":["…","…","…"],"bias":["LDomvhawN77hpJO9CQ5nPG5SFj6SKN09"]},"conv2d_2":{"weights":["…","…"],"bias":["lcriPVfdKz5d26q8NI9iPpCDNz7va108"]},"conv2d_3":{"weights":["…","…"],"bias":["7v5KvadWjD5SG0w9fIa+PTqi5T17Qx+9"]},"conv2d_4":{"weights":["…","…"],"bias":["uNI2viSbmLxD2KA+cwQWPcBLyDx6oji9"]},"conv2d_5":{"weights":["…","…"],"bias":["yHXLPlJ1Iz5UPsA9S0D8PW0D0z1MnDc+"]},"conv2d_6":{"weights":["…","…"],"bias":["Qn+dPsCMP72N9Ne8dH9kPhnubj4IzI++"]},"conv2d_7":{"weights":["…","…"],"bias":["t2iIvZdaAj6XyXE9dbWAPNsQF756VRk+"]},"conv2d_8":{"weights":["…","…","…"],"bias":["ngiXPSKVf76mqye9s0RKvOIrpb6kixo+"]},"conv2d_9":{"weights":["…","…","…"],"bias":["vroNPSwAvT1uRtc9C64EPj1QWzvjtGk+"]},"conv2d_10":{"weights":["…"],"bias":["mV2Jvg=="]}},"hash":"900aebb3ae61c35957b83554f08432e935bcdba6f2f937b7c4b58fc8dbb8d90a"}